type List[A] {
  Cons(A, List[A]),
  Nil,
}

type Option[A] {
  Some(A),
  None,
}

type Tree[A] {
  Rose(A, List[Tree[A]]),
}

type tensor_float16_t {
  tensor_nil_float16,
  tensor0_float16(float16),
  tensor1_float16(Tensor[(?), float16]),
  tensor2_float16(Tensor[(?, ?), float16]),
  tensor3_float16(Tensor[(?, ?, ?), float16]),
  tensor4_float16(Tensor[(?, ?, ?, ?), float16]),
  tensor5_float16(Tensor[(?, ?, ?, ?, ?), float16]),
  tensor6_float16(Tensor[(?, ?, ?, ?, ?, ?), float16]),
}

type tensor_float32_t {
  tensor_nil_float32,
  tensor0_float32(float32),
  tensor1_float32(Tensor[(?), float32]),
  tensor2_float32(Tensor[(?, ?), float32]),
  tensor3_float32(Tensor[(?, ?, ?), float32]),
  tensor4_float32(Tensor[(?, ?, ?, ?), float32]),
  tensor5_float32(Tensor[(?, ?, ?, ?, ?), float32]),
  tensor6_float32(Tensor[(?, ?, ?, ?, ?, ?), float32]),
}

type tensor_float64_t {
  tensor_nil_float64,
  tensor0_float64(float64),
  tensor1_float64(Tensor[(?), float64]),
  tensor2_float64(Tensor[(?, ?), float64]),
  tensor3_float64(Tensor[(?, ?, ?), float64]),
  tensor4_float64(Tensor[(?, ?, ?, ?), float64]),
  tensor5_float64(Tensor[(?, ?, ?, ?, ?), float64]),
  tensor6_float64(Tensor[(?, ?, ?, ?, ?, ?), float64]),
}

type tensor_int16_t {
  tensor_nil_int16,
  tensor0_int16(int16),
  tensor1_int16(Tensor[(?), int16]),
  tensor2_int16(Tensor[(?, ?), int16]),
  tensor3_int16(Tensor[(?, ?, ?), int16]),
  tensor4_int16(Tensor[(?, ?, ?, ?), int16]),
  tensor5_int16(Tensor[(?, ?, ?, ?, ?), int16]),
  tensor6_int16(Tensor[(?, ?, ?, ?, ?, ?), int16]),
}

type tensor_int32_t {
  tensor_nil_int32,
  tensor0_int32(int32),
  tensor1_int32(Tensor[(?), int32]),
  tensor2_int32(Tensor[(?, ?), int32]),
  tensor3_int32(Tensor[(?, ?, ?), int32]),
  tensor4_int32(Tensor[(?, ?, ?, ?), int32]),
  tensor5_int32(Tensor[(?, ?, ?, ?, ?), int32]),
  tensor6_int32(Tensor[(?, ?, ?, ?, ?, ?), int32]),
}

type tensor_int64_t {
  tensor_nil_int64,
  tensor0_int64(int64),
  tensor1_int64(Tensor[(?), int64]),
  tensor2_int64(Tensor[(?, ?), int64]),
  tensor3_int64(Tensor[(?, ?, ?), int64]),
  tensor4_int64(Tensor[(?, ?, ?, ?), int64]),
  tensor5_int64(Tensor[(?, ?, ?, ?, ?), int64]),
  tensor6_int64(Tensor[(?, ?, ?, ?, ?, ?), int64]),
}

type tensor_int8_t {
  tensor_nil_int8,
  tensor0_int8(int8),
  tensor1_int8(Tensor[(?), int8]),
  tensor2_int8(Tensor[(?, ?), int8]),
  tensor3_int8(Tensor[(?, ?, ?), int8]),
  tensor4_int8(Tensor[(?, ?, ?, ?), int8]),
  tensor5_int8(Tensor[(?, ?, ?, ?, ?), int8]),
  tensor6_int8(Tensor[(?, ?, ?, ?, ?, ?), int8]),
}

type tensor_uint16_t {
  tensor_nil_uint16,
  tensor0_uint16(uint16),
  tensor1_uint16(Tensor[(?), uint16]),
  tensor2_uint16(Tensor[(?, ?), uint16]),
  tensor3_uint16(Tensor[(?, ?, ?), uint16]),
  tensor4_uint16(Tensor[(?, ?, ?, ?), uint16]),
  tensor5_uint16(Tensor[(?, ?, ?, ?, ?), uint16]),
  tensor6_uint16(Tensor[(?, ?, ?, ?, ?, ?), uint16]),
}

type tensor_uint8_t {
  tensor_nil_uint8,
  tensor0_uint8(uint8),
  tensor1_uint8(Tensor[(?), uint8]),
  tensor2_uint8(Tensor[(?, ?), uint8]),
  tensor3_uint8(Tensor[(?, ?, ?), uint8]),
  tensor4_uint8(Tensor[(?, ?, ?, ?), uint8]),
  tensor5_uint8(Tensor[(?, ?, ?, ?, ?), uint8]),
  tensor6_uint8(Tensor[(?, ?, ?, ?, ?, ?), uint8]),
}

def @main(%input0: Tensor[(1, 64, 28, 28), float32] /* ty=Tensor[(1, 64, 28, 28), float32] span=aten::split_with_sizes_0.input0:0:0 */) -> Tensor[(1, 128, 28, 28), float32] {
  %0 = annotation.compiler_begin(%input0, compiler="imcflow_region1") /* ty=Tensor[(1, 64, 28, 28), float32] */;
  %1 = @tvmgen_default_imcflow_region2_main_0(%0) /* ty=Tensor[(1, 128, 28, 28), float32] */;
  %2 = annotation.compiler_end(%1, compiler="imcflow_region1") /* ty=Tensor[(1, 128, 28, 28), float32] */;
  %3 = annotation.compiler_begin(%2, compiler="imcflow_region1") /* ty=Tensor[(1, 128, 28, 28), float32] */;
  %4 = @tvmgen_default_imcflow_region1_main_1(%3) /* ty=Tensor[(1, 128, 28, 28), float32] */;
  annotation.compiler_end(%4, compiler="imcflow_region1") /* ty=Tensor[(1, 128, 28, 28), float32] */
}

def @tvmgen_default_imcflow_region1_main_1(%imcflow_region1_1_i0: Tensor[(1, 128, 28, 28), float32] /* ty=Tensor[(1, 128, 28, 28), float32] */, Compiler="imcflow_region1", Primitive=1, Inline=1, global_symbol="tvmgen_default_imcflow_region1_main_1") -> Tensor[(1, 128, 28, 28), float32] {
  %14 = split(%imcflow_region1_1_i0, indices_or_sections=[meta[runtime.BoxInt][0], meta[runtime.BoxInt][1], meta[runtime.BoxInt][2], meta[runtime.BoxInt][3]], axis=1) /* ty=(Tensor[(1, 28, 28, 28), float32], Tensor[(1, 28, 28, 28), float32], Tensor[(1, 28, 28, 28), float32], Tensor[(1, 28, 28, 28), float32], Tensor[(1, 16, 28, 28), float32]) */;
  %16 = %14.1 /* ty=Tensor[(1, 28, 28, 28), float32] */;
  %17 = fn (%FunctionVar_3_0: Tensor[(1, 28, 28, 28), float32] /* ty=Tensor[(1, 28, 28, 28), float32] */, PartitionedFromPattern="nn.conv2d_nn.bias_add_", Composite="imcflow.conv2d-bias_add") -> Tensor[(1, 64, 28, 28), float32] {
    %15 = nn.conv2d(%FunctionVar_3_0, meta[relay.Constant][6] /* ty=Tensor[(64, 28, 3, 3), float32] */, padding=[1, 1, 1, 1], channels=64, kernel_size=[3, 3]) /* ty=Tensor[(1, 64, 28, 28), float32] span=aten::_convolution_7:0:0 */;
    nn.bias_add(%15, meta[relay.Constant][7] /* ty=Tensor[(64), float32] */) /* ty=Tensor[(1, 64, 28, 28), float32] span=aten::_convolution_7:0:0 */
  } /* ty=fn (Tensor[(1, 28, 28, 28), float32]) -> Tensor[(1, 64, 28, 28), float32] */;
  %22 = %14.3 /* ty=Tensor[(1, 28, 28, 28), float32] */;
  %23 = fn (%FunctionVar_2_0: Tensor[(1, 28, 28, 28), float32] /* ty=Tensor[(1, 28, 28, 28), float32] */, PartitionedFromPattern="nn.conv2d_nn.bias_add_", Composite="imcflow.conv2d-bias_add") -> Tensor[(1, 64, 28, 28), float32] {
    %21 = nn.conv2d(%FunctionVar_2_0, meta[relay.Constant][10] /* ty=Tensor[(64, 28, 3, 3), float32] */, padding=[1, 1, 1, 1], channels=64, kernel_size=[3, 3]) /* ty=Tensor[(1, 64, 28, 28), float32] span=aten::_convolution_9:0:0 */;
    nn.bias_add(%21, meta[relay.Constant][11] /* ty=Tensor[(64), float32] */) /* ty=Tensor[(1, 64, 28, 28), float32] span=aten::_convolution_9:0:0 */
  } /* ty=fn (Tensor[(1, 28, 28, 28), float32]) -> Tensor[(1, 64, 28, 28), float32] */;
  %24 = %14.2 /* ty=Tensor[(1, 28, 28, 28), float32] */;
  %25 = %23(%22) /* ty=Tensor[(1, 64, 28, 28), float32] */;
  %26 = fn (%FunctionVar_1_01: Tensor[(1, 28, 28, 28), float32] /* ty=Tensor[(1, 28, 28, 28), float32] */, %FunctionVar_1_11: Tensor[(1, 64, 28, 28), float32] /* ty=Tensor[(1, 64, 28, 28), float32] */, PartitionedFromPattern="nn.conv2d_nn.bias_add_add_divide_", Composite="imcflow.conv2d-bias_add-add-div") -> Tensor[(1, 64, 28, 28), float32] {
    %18 = nn.conv2d(%FunctionVar_1_01, meta[relay.Constant][8] /* ty=Tensor[(64, 28, 3, 3), float32] */, padding=[1, 1, 1, 1], channels=64, kernel_size=[3, 3]) /* ty=Tensor[(1, 64, 28, 28), float32] span=aten::_convolution_8:0:0 */;
    %19 = nn.bias_add(%18, meta[relay.Constant][9] /* ty=Tensor[(64), float32] */) /* ty=Tensor[(1, 64, 28, 28), float32] span=aten::_convolution_8:0:0 */;
    %20 = add(%19, %FunctionVar_1_11) /* ty=Tensor[(1, 64, 28, 28), float32] span=aten::add_5:0:0 */;
    divide(%20, 2f /* ty=float32 span=aten::div_5:0:0 */) /* ty=Tensor[(1, 64, 28, 28), float32] span=aten::div_5:0:0 */
  } /* ty=fn (Tensor[(1, 28, 28, 28), float32], Tensor[(1, 64, 28, 28), float32]) -> Tensor[(1, 64, 28, 28), float32] */;
  %29 = %14.4 /* ty=Tensor[(1, 16, 28, 28), float32] */;
  %30 = fn (%FunctionVar_1_02: Tensor[(1, 16, 28, 28), float32] /* ty=Tensor[(1, 16, 28, 28), float32] */, PartitionedFromPattern="nn.conv2d_nn.bias_add_divide_", Composite="imcflow.conv2d-bias_add-div") -> Tensor[(1, 64, 28, 28), float32] {
    %27 = nn.conv2d(%FunctionVar_1_02, meta[relay.Constant][12] /* ty=Tensor[(64, 16, 3, 3), float32] */, padding=[1, 1, 1, 1], channels=64, kernel_size=[3, 3]) /* ty=Tensor[(1, 64, 28, 28), float32] span=aten::_convolution_10:0:0 */;
    %28 = nn.bias_add(%27, meta[relay.Constant][13] /* ty=Tensor[(64), float32] */) /* ty=Tensor[(1, 64, 28, 28), float32] span=aten::_convolution_10:0:0 */;
    divide(%28, 2f /* ty=float32 span=aten::div_6:0:0 */) /* ty=Tensor[(1, 64, 28, 28), float32] span=aten::div_6:0:0 */
  } /* ty=fn (Tensor[(1, 16, 28, 28), float32]) -> Tensor[(1, 64, 28, 28), float32] */;
  %31 = %14.0 /* ty=Tensor[(1, 28, 28, 28), float32] */;
  %32 = %17(%16) /* ty=Tensor[(1, 64, 28, 28), float32] */;
  %33 = %26(%24, %25) /* ty=Tensor[(1, 64, 28, 28), float32] */;
  %34 = %30(%29) /* ty=Tensor[(1, 64, 28, 28), float32] */;
  %35 = fn (%FunctionVar_1_0: Tensor[(1, 28, 28, 28), float32] /* ty=Tensor[(1, 28, 28, 28), float32] */, %FunctionVar_1_1: Tensor[(1, 64, 28, 28), float32] /* ty=Tensor[(1, 64, 28, 28), float32] */, %FunctionVar_1_2: Tensor[(1, 64, 28, 28), float32] /* ty=Tensor[(1, 64, 28, 28), float32] */, %FunctionVar_1_3: Tensor[(1, 64, 28, 28), float32] /* ty=Tensor[(1, 64, 28, 28), float32] */, PartitionedFromPattern="nn.conv2d_nn.bias_add_add_divide_add_add_nn.batch_norm_TupleGetItem0_nn.relu_qnn.imcflow_min_max_quantize_", Composite="imcflow.conv2d-bias_add-add-div-add-bn-relu-min_max_quant") -> Tensor[(1, 64, 28, 28), float32] {
    %5 = nn.conv2d(%FunctionVar_1_0, meta[relay.Constant][0] /* ty=Tensor[(64, 28, 3, 3), float32] */, padding=[1, 1, 1, 1], channels=64, kernel_size=[3, 3]) /* ty=Tensor[(1, 64, 28, 28), float32] span=aten::_convolution_6:0:0 */;
    %6 = nn.bias_add(%5, meta[relay.Constant][1] /* ty=Tensor[(64), float32] */) /* ty=Tensor[(1, 64, 28, 28), float32] span=aten::_convolution_6:0:0 */;
    %7 = add(%6, %FunctionVar_1_1) /* ty=Tensor[(1, 64, 28, 28), float32] span=aten::add_4:0:0 */;
    %8 = divide(%7, 2f /* ty=float32 span=aten::div_4:0:0 */) /* ty=Tensor[(1, 64, 28, 28), float32] span=aten::div_4:0:0 */;
    %9 = add(%8, %FunctionVar_1_2) /* ty=Tensor[(1, 64, 28, 28), float32] span=aten::add_6:0:0 */;
    %10 = add(%9, %FunctionVar_1_3) /* ty=Tensor[(1, 64, 28, 28), float32] span=aten::add_7:0:0 */;
    %11 = nn.batch_norm(%10, meta[relay.Constant][2] /* ty=Tensor[(64), float32] */, meta[relay.Constant][3] /* ty=Tensor[(64), float32] */, meta[relay.Constant][4] /* ty=Tensor[(64), float32] */, meta[relay.Constant][5] /* ty=Tensor[(64), float32] */) /* ty=(Tensor[(1, 64, 28, 28), float32], Tensor[(64), float32], Tensor[(64), float32]) span=aten::batch_norm_2:0:0 */;
    %12 = %11.0 /* ty=Tensor[(1, 64, 28, 28), float32] span=aten::batch_norm_2:0:0 */;
    %13 = nn.relu(%12) /* ty=Tensor[(1, 64, 28, 28), float32] span=aten::relu_2:0:0 */;
    qnn.imcflow_min_max_quantize(%13, 0f /* ty=float32 span=imcflow::min_max_quant_2:0:0 */, 1f /* ty=float32 span=imcflow::min_max_quant_2:0:0 */, out_dtype="float32", axis=1) /* ty=Tensor[(1, 64, 28, 28), float32] span=imcflow::min_max_quant_2:0:0 */
  } /* ty=fn (Tensor[(1, 28, 28, 28), float32], Tensor[(1, 64, 28, 28), float32], Tensor[(1, 64, 28, 28), float32], Tensor[(1, 64, 28, 28), float32]) -> Tensor[(1, 64, 28, 28), float32] */;
  %46 = fn (%FunctionVar_1_03: Tensor[(1, 28, 28, 28), float32] /* ty=Tensor[(1, 28, 28, 28), float32] */, PartitionedFromPattern="nn.conv2d_nn.bias_add_", Composite="imcflow.conv2d-bias_add") -> Tensor[(1, 64, 28, 28), float32] {
    %45 = nn.conv2d(%FunctionVar_1_03, meta[relay.Constant][20] /* ty=Tensor[(64, 28, 3, 3), float32] */, padding=[1, 1, 1, 1], channels=64, kernel_size=[3, 3]) /* ty=Tensor[(1, 64, 28, 28), float32] span=aten::_convolution_12:0:0 */;
    nn.bias_add(%45, meta[relay.Constant][21] /* ty=Tensor[(64), float32] */) /* ty=Tensor[(1, 64, 28, 28), float32] span=aten::_convolution_12:0:0 */
  } /* ty=fn (Tensor[(1, 28, 28, 28), float32]) -> Tensor[(1, 64, 28, 28), float32] */;
  %51 = fn (%FunctionVar_0_02: Tensor[(1, 28, 28, 28), float32] /* ty=Tensor[(1, 28, 28, 28), float32] */, PartitionedFromPattern="nn.conv2d_nn.bias_add_", Composite="imcflow.conv2d-bias_add") -> Tensor[(1, 64, 28, 28), float32] {
    %50 = nn.conv2d(%FunctionVar_0_02, meta[relay.Constant][24] /* ty=Tensor[(64, 28, 3, 3), float32] */, padding=[1, 1, 1, 1], channels=64, kernel_size=[3, 3]) /* ty=Tensor[(1, 64, 28, 28), float32] span=aten::_convolution_14:0:0 */;
    nn.bias_add(%50, meta[relay.Constant][25] /* ty=Tensor[(64), float32] */) /* ty=Tensor[(1, 64, 28, 28), float32] span=aten::_convolution_14:0:0 */
  } /* ty=fn (Tensor[(1, 28, 28, 28), float32]) -> Tensor[(1, 64, 28, 28), float32] */;
  %52 = %51(%22) /* ty=Tensor[(1, 64, 28, 28), float32] */;
  %53 = fn (%FunctionVar_0_01: Tensor[(1, 28, 28, 28), float32] /* ty=Tensor[(1, 28, 28, 28), float32] */, %FunctionVar_0_11: Tensor[(1, 64, 28, 28), float32] /* ty=Tensor[(1, 64, 28, 28), float32] */, PartitionedFromPattern="nn.conv2d_nn.bias_add_add_divide_", Composite="imcflow.conv2d-bias_add-add-div") -> Tensor[(1, 64, 28, 28), float32] {
    %47 = nn.conv2d(%FunctionVar_0_01, meta[relay.Constant][22] /* ty=Tensor[(64, 28, 3, 3), float32] */, padding=[1, 1, 1, 1], channels=64, kernel_size=[3, 3]) /* ty=Tensor[(1, 64, 28, 28), float32] span=aten::_convolution_13:0:0 */;
    %48 = nn.bias_add(%47, meta[relay.Constant][23] /* ty=Tensor[(64), float32] */) /* ty=Tensor[(1, 64, 28, 28), float32] span=aten::_convolution_13:0:0 */;
    %49 = add(%48, %FunctionVar_0_11) /* ty=Tensor[(1, 64, 28, 28), float32] span=aten::add_9:0:0 */;
    divide(%49, 2f /* ty=float32 span=aten::div_8:0:0 */) /* ty=Tensor[(1, 64, 28, 28), float32] span=aten::div_8:0:0 */
  } /* ty=fn (Tensor[(1, 28, 28, 28), float32], Tensor[(1, 64, 28, 28), float32]) -> Tensor[(1, 64, 28, 28), float32] */;
  %56 = fn (%FunctionVar_0_03: Tensor[(1, 16, 28, 28), float32] /* ty=Tensor[(1, 16, 28, 28), float32] */, PartitionedFromPattern="nn.conv2d_nn.bias_add_divide_", Composite="imcflow.conv2d-bias_add-div") -> Tensor[(1, 64, 28, 28), float32] {
    %54 = nn.conv2d(%FunctionVar_0_03, meta[relay.Constant][26] /* ty=Tensor[(64, 16, 3, 3), float32] */, padding=[1, 1, 1, 1], channels=64, kernel_size=[3, 3]) /* ty=Tensor[(1, 64, 28, 28), float32] span=aten::_convolution_15:0:0 */;
    %55 = nn.bias_add(%54, meta[relay.Constant][27] /* ty=Tensor[(64), float32] */) /* ty=Tensor[(1, 64, 28, 28), float32] span=aten::_convolution_15:0:0 */;
    divide(%55, 2f /* ty=float32 span=aten::div_9:0:0 */) /* ty=Tensor[(1, 64, 28, 28), float32] span=aten::div_9:0:0 */
  } /* ty=fn (Tensor[(1, 16, 28, 28), float32]) -> Tensor[(1, 64, 28, 28), float32] */;
  %57 = %46(%16) /* ty=Tensor[(1, 64, 28, 28), float32] */;
  %58 = %53(%24, %52) /* ty=Tensor[(1, 64, 28, 28), float32] */;
  %59 = %56(%29) /* ty=Tensor[(1, 64, 28, 28), float32] */;
  %60 = fn (%FunctionVar_0_0: Tensor[(1, 28, 28, 28), float32] /* ty=Tensor[(1, 28, 28, 28), float32] */, %FunctionVar_0_1: Tensor[(1, 64, 28, 28), float32] /* ty=Tensor[(1, 64, 28, 28), float32] */, %FunctionVar_0_2: Tensor[(1, 64, 28, 28), float32] /* ty=Tensor[(1, 64, 28, 28), float32] */, %FunctionVar_0_3: Tensor[(1, 64, 28, 28), float32] /* ty=Tensor[(1, 64, 28, 28), float32] */, PartitionedFromPattern="nn.conv2d_nn.bias_add_add_divide_add_add_nn.batch_norm_TupleGetItem0_nn.relu_qnn.imcflow_min_max_quantize_", Composite="imcflow.conv2d-bias_add-add-div-add-bn-relu-min_max_quant") -> Tensor[(1, 64, 28, 28), float32] {
    %36 = nn.conv2d(%FunctionVar_0_0, meta[relay.Constant][14] /* ty=Tensor[(64, 28, 3, 3), float32] */, padding=[1, 1, 1, 1], channels=64, kernel_size=[3, 3]) /* ty=Tensor[(1, 64, 28, 28), float32] span=aten::_convolution_11:0:0 */;
    %37 = nn.bias_add(%36, meta[relay.Constant][15] /* ty=Tensor[(64), float32] */) /* ty=Tensor[(1, 64, 28, 28), float32] span=aten::_convolution_11:0:0 */;
    %38 = add(%37, %FunctionVar_0_1) /* ty=Tensor[(1, 64, 28, 28), float32] span=aten::add_8:0:0 */;
    %39 = divide(%38, 2f /* ty=float32 span=aten::div_7:0:0 */) /* ty=Tensor[(1, 64, 28, 28), float32] span=aten::div_7:0:0 */;
    %40 = add(%39, %FunctionVar_0_2) /* ty=Tensor[(1, 64, 28, 28), float32] span=aten::add_10:0:0 */;
    %41 = add(%40, %FunctionVar_0_3) /* ty=Tensor[(1, 64, 28, 28), float32] span=aten::add_11:0:0 */;
    %42 = nn.batch_norm(%41, meta[relay.Constant][16] /* ty=Tensor[(64), float32] */, meta[relay.Constant][17] /* ty=Tensor[(64), float32] */, meta[relay.Constant][18] /* ty=Tensor[(64), float32] */, meta[relay.Constant][19] /* ty=Tensor[(64), float32] */) /* ty=(Tensor[(1, 64, 28, 28), float32], Tensor[(64), float32], Tensor[(64), float32]) span=aten::batch_norm_3:0:0 */;
    %43 = %42.0 /* ty=Tensor[(1, 64, 28, 28), float32] span=aten::batch_norm_3:0:0 */;
    %44 = nn.relu(%43) /* ty=Tensor[(1, 64, 28, 28), float32] span=aten::relu_3:0:0 */;
    qnn.imcflow_min_max_quantize(%44, 0f /* ty=float32 span=imcflow::min_max_quant_3:0:0 */, 1f /* ty=float32 span=imcflow::min_max_quant_3:0:0 */, out_dtype="float32", axis=1) /* ty=Tensor[(1, 64, 28, 28), float32] span=imcflow::min_max_quant_3:0:0 */
  } /* ty=fn (Tensor[(1, 28, 28, 28), float32], Tensor[(1, 64, 28, 28), float32], Tensor[(1, 64, 28, 28), float32], Tensor[(1, 64, 28, 28), float32]) -> Tensor[(1, 64, 28, 28), float32] */;
  %61 = %35(%31, %32, %33, %34) /* ty=Tensor[(1, 64, 28, 28), float32] */;
  %62 = %60(%31, %57, %58, %59) /* ty=Tensor[(1, 64, 28, 28), float32] */;
  %63 = (%61, %62) /* ty=(Tensor[(1, 64, 28, 28), float32], Tensor[(1, 64, 28, 28), float32]) */;
  concatenate(%63, axis=1) /* ty=Tensor[(1, 128, 28, 28), float32] */
}

def @tvmgen_default_imcflow_region2_main_0(%imcflow_region2_0_i0: Tensor[(1, 64, 28, 28), float32] /* ty=Tensor[(1, 64, 28, 28), float32] */, Compiler="imcflow_region2", Primitive=1, Inline=1, global_symbol="tvmgen_default_imcflow_region2_main_0") -> Tensor[(1, 128, 28, 28), float32] {
  %72 = split(%imcflow_region2_0_i0, indices_or_sections=[meta[runtime.BoxInt][4], meta[runtime.BoxInt][5]], axis=1) /* ty=(Tensor[(1, 28, 28, 28), float32], Tensor[(1, 28, 28, 28), float32], Tensor[(1, 8, 28, 28), float32]) */;
  %74 = %72.1 /* ty=Tensor[(1, 28, 28, 28), float32] */;
  %75 = fn (%FunctionVar_5_0: Tensor[(1, 28, 28, 28), float32] /* ty=Tensor[(1, 28, 28, 28), float32] */, PartitionedFromPattern="nn.conv2d_nn.bias_add_", Composite="imcflow.conv2d-bias_add") -> Tensor[(1, 64, 28, 28), float32] {
    %73 = nn.conv2d(%FunctionVar_5_0, meta[relay.Constant][34] /* ty=Tensor[(64, 28, 3, 3), float32] */, padding=[1, 1, 1, 1], channels=64, kernel_size=[3, 3]) /* ty=Tensor[(1, 64, 28, 28), float32] span=aten::_convolution_1:0:0 */;
    nn.bias_add(%73, meta[relay.Constant][35] /* ty=Tensor[(64), float32] */) /* ty=Tensor[(1, 64, 28, 28), float32] span=aten::_convolution_1:0:0 */
  } /* ty=fn (Tensor[(1, 28, 28, 28), float32]) -> Tensor[(1, 64, 28, 28), float32] */;
  %78 = %72.2 /* ty=Tensor[(1, 8, 28, 28), float32] */;
  %79 = fn (%FunctionVar_3_02: Tensor[(1, 8, 28, 28), float32] /* ty=Tensor[(1, 8, 28, 28), float32] */, PartitionedFromPattern="nn.conv2d_nn.bias_add_divide_", Composite="imcflow.conv2d-bias_add-div") -> Tensor[(1, 64, 28, 28), float32] {
    %76 = nn.conv2d(%FunctionVar_3_02, meta[relay.Constant][36] /* ty=Tensor[(64, 8, 3, 3), float32] */, padding=[1, 1, 1, 1], channels=64, kernel_size=[3, 3]) /* ty=Tensor[(1, 64, 28, 28), float32] span=aten::_convolution_2:0:0 */;
    %77 = nn.bias_add(%76, meta[relay.Constant][37] /* ty=Tensor[(64), float32] */) /* ty=Tensor[(1, 64, 28, 28), float32] span=aten::_convolution_2:0:0 */;
    divide(%77, 2f /* ty=float32 span=aten::div_1:0:0 */) /* ty=Tensor[(1, 64, 28, 28), float32] span=aten::div_1:0:0 */
  } /* ty=fn (Tensor[(1, 8, 28, 28), float32]) -> Tensor[(1, 64, 28, 28), float32] */;
  %80 = %72.0 /* ty=Tensor[(1, 28, 28, 28), float32] */;
  %81 = %75(%74) /* ty=Tensor[(1, 64, 28, 28), float32] */;
  %82 = %79(%78) /* ty=Tensor[(1, 64, 28, 28), float32] */;
  %83 = fn (%FunctionVar_3_01: Tensor[(1, 28, 28, 28), float32] /* ty=Tensor[(1, 28, 28, 28), float32] */, %FunctionVar_3_1: Tensor[(1, 64, 28, 28), float32] /* ty=Tensor[(1, 64, 28, 28), float32] */, %FunctionVar_3_2: Tensor[(1, 64, 28, 28), float32] /* ty=Tensor[(1, 64, 28, 28), float32] */, PartitionedFromPattern="nn.conv2d_nn.bias_add_add_divide_add_nn.batch_norm_TupleGetItem0_nn.relu_qnn.imcflow_min_max_quantize_", Composite="imcflow.conv2d-bias_add-add-div-add-bn-relu-min_max_quant") -> Tensor[(1, 64, 28, 28), float32] {
    %64 = nn.conv2d(%FunctionVar_3_01, meta[relay.Constant][28] /* ty=Tensor[(64, 28, 3, 3), float32] */, padding=[1, 1, 1, 1], channels=64, kernel_size=[3, 3]) /* ty=Tensor[(1, 64, 28, 28), float32] span=aten::_convolution_0:0:0 */;
    %65 = nn.bias_add(%64, meta[relay.Constant][29] /* ty=Tensor[(64), float32] */) /* ty=Tensor[(1, 64, 28, 28), float32] span=aten::_convolution_0:0:0 */;
    %66 = add(%65, %FunctionVar_3_1) /* ty=Tensor[(1, 64, 28, 28), float32] span=aten::add_0:0:0 */;
    %67 = divide(%66, 2f /* ty=float32 span=aten::div_0:0:0 */) /* ty=Tensor[(1, 64, 28, 28), float32] span=aten::div_0:0:0 */;
    %68 = add(%67, %FunctionVar_3_2) /* ty=Tensor[(1, 64, 28, 28), float32] span=aten::add_1:0:0 */;
    %69 = nn.batch_norm(%68, meta[relay.Constant][30] /* ty=Tensor[(64), float32] */, meta[relay.Constant][31] /* ty=Tensor[(64), float32] */, meta[relay.Constant][32] /* ty=Tensor[(64), float32] */, meta[relay.Constant][33] /* ty=Tensor[(64), float32] */) /* ty=(Tensor[(1, 64, 28, 28), float32], Tensor[(64), float32], Tensor[(64), float32]) span=aten::batch_norm_0:0:0 */;
    %70 = %69.0 /* ty=Tensor[(1, 64, 28, 28), float32] span=aten::batch_norm_0:0:0 */;
    %71 = nn.relu(%70) /* ty=Tensor[(1, 64, 28, 28), float32] span=aten::relu_0:0:0 */;
    qnn.imcflow_min_max_quantize(%71, 0f /* ty=float32 span=imcflow::min_max_quant_0:0:0 */, 1f /* ty=float32 span=imcflow::min_max_quant_0:0:0 */, out_dtype="float32", axis=1) /* ty=Tensor[(1, 64, 28, 28), float32] span=imcflow::min_max_quant_0:0:0 */
  } /* ty=fn (Tensor[(1, 28, 28, 28), float32], Tensor[(1, 64, 28, 28), float32], Tensor[(1, 64, 28, 28), float32]) -> Tensor[(1, 64, 28, 28), float32] */;
  %93 = fn (%FunctionVar_4_0: Tensor[(1, 28, 28, 28), float32] /* ty=Tensor[(1, 28, 28, 28), float32] */, PartitionedFromPattern="nn.conv2d_nn.bias_add_", Composite="imcflow.conv2d-bias_add") -> Tensor[(1, 64, 28, 28), float32] {
    %92 = nn.conv2d(%FunctionVar_4_0, meta[relay.Constant][44] /* ty=Tensor[(64, 28, 3, 3), float32] */, padding=[1, 1, 1, 1], channels=64, kernel_size=[3, 3]) /* ty=Tensor[(1, 64, 28, 28), float32] span=aten::_convolution_4:0:0 */;
    nn.bias_add(%92, meta[relay.Constant][45] /* ty=Tensor[(64), float32] */) /* ty=Tensor[(1, 64, 28, 28), float32] span=aten::_convolution_4:0:0 */
  } /* ty=fn (Tensor[(1, 28, 28, 28), float32]) -> Tensor[(1, 64, 28, 28), float32] */;
  %96 = fn (%FunctionVar_2_02: Tensor[(1, 8, 28, 28), float32] /* ty=Tensor[(1, 8, 28, 28), float32] */, PartitionedFromPattern="nn.conv2d_nn.bias_add_divide_", Composite="imcflow.conv2d-bias_add-div") -> Tensor[(1, 64, 28, 28), float32] {
    %94 = nn.conv2d(%FunctionVar_2_02, meta[relay.Constant][46] /* ty=Tensor[(64, 8, 3, 3), float32] */, padding=[1, 1, 1, 1], channels=64, kernel_size=[3, 3]) /* ty=Tensor[(1, 64, 28, 28), float32] span=aten::_convolution_5:0:0 */;
    %95 = nn.bias_add(%94, meta[relay.Constant][47] /* ty=Tensor[(64), float32] */) /* ty=Tensor[(1, 64, 28, 28), float32] span=aten::_convolution_5:0:0 */;
    divide(%95, 2f /* ty=float32 span=aten::div_3:0:0 */) /* ty=Tensor[(1, 64, 28, 28), float32] span=aten::div_3:0:0 */
  } /* ty=fn (Tensor[(1, 8, 28, 28), float32]) -> Tensor[(1, 64, 28, 28), float32] */;
  %97 = %93(%74) /* ty=Tensor[(1, 64, 28, 28), float32] */;
  %98 = %96(%78) /* ty=Tensor[(1, 64, 28, 28), float32] */;
  %99 = fn (%FunctionVar_2_01: Tensor[(1, 28, 28, 28), float32] /* ty=Tensor[(1, 28, 28, 28), float32] */, %FunctionVar_2_1: Tensor[(1, 64, 28, 28), float32] /* ty=Tensor[(1, 64, 28, 28), float32] */, %FunctionVar_2_2: Tensor[(1, 64, 28, 28), float32] /* ty=Tensor[(1, 64, 28, 28), float32] */, PartitionedFromPattern="nn.conv2d_nn.bias_add_add_divide_add_nn.batch_norm_TupleGetItem0_nn.relu_qnn.imcflow_min_max_quantize_", Composite="imcflow.conv2d-bias_add-add-div-add-bn-relu-min_max_quant") -> Tensor[(1, 64, 28, 28), float32] {
    %84 = nn.conv2d(%FunctionVar_2_01, meta[relay.Constant][38] /* ty=Tensor[(64, 28, 3, 3), float32] */, padding=[1, 1, 1, 1], channels=64, kernel_size=[3, 3]) /* ty=Tensor[(1, 64, 28, 28), float32] span=aten::_convolution_3:0:0 */;
    %85 = nn.bias_add(%84, meta[relay.Constant][39] /* ty=Tensor[(64), float32] */) /* ty=Tensor[(1, 64, 28, 28), float32] span=aten::_convolution_3:0:0 */;
    %86 = add(%85, %FunctionVar_2_1) /* ty=Tensor[(1, 64, 28, 28), float32] span=aten::add_2:0:0 */;
    %87 = divide(%86, 2f /* ty=float32 span=aten::div_2:0:0 */) /* ty=Tensor[(1, 64, 28, 28), float32] span=aten::div_2:0:0 */;
    %88 = add(%87, %FunctionVar_2_2) /* ty=Tensor[(1, 64, 28, 28), float32] span=aten::add_3:0:0 */;
    %89 = nn.batch_norm(%88, meta[relay.Constant][40] /* ty=Tensor[(64), float32] */, meta[relay.Constant][41] /* ty=Tensor[(64), float32] */, meta[relay.Constant][42] /* ty=Tensor[(64), float32] */, meta[relay.Constant][43] /* ty=Tensor[(64), float32] */) /* ty=(Tensor[(1, 64, 28, 28), float32], Tensor[(64), float32], Tensor[(64), float32]) span=aten::batch_norm_1:0:0 */;
    %90 = %89.0 /* ty=Tensor[(1, 64, 28, 28), float32] span=aten::batch_norm_1:0:0 */;
    %91 = nn.relu(%90) /* ty=Tensor[(1, 64, 28, 28), float32] span=aten::relu_1:0:0 */;
    qnn.imcflow_min_max_quantize(%91, 0f /* ty=float32 span=imcflow::min_max_quant_1:0:0 */, 1f /* ty=float32 span=imcflow::min_max_quant_1:0:0 */, out_dtype="float32", axis=1) /* ty=Tensor[(1, 64, 28, 28), float32] span=imcflow::min_max_quant_1:0:0 */
  } /* ty=fn (Tensor[(1, 28, 28, 28), float32], Tensor[(1, 64, 28, 28), float32], Tensor[(1, 64, 28, 28), float32]) -> Tensor[(1, 64, 28, 28), float32] */;
  %100 = %83(%80, %81, %82) /* ty=Tensor[(1, 64, 28, 28), float32] */;
  %101 = %99(%80, %97, %98) /* ty=Tensor[(1, 64, 28, 28), float32] */;
  %102 = (%100, %101) /* ty=(Tensor[(1, 64, 28, 28), float32], Tensor[(1, 64, 28, 28), float32]) */;
  concatenate(%102, axis=1) /* ty=Tensor[(1, 128, 28, 28), float32] */
}

